model/strided_slice.tflite (tflite, 132124 bytes, 1 tensors)

simple_layer/ReadVariableOp/resource f4 [128, 8, 32]
000000 08 ff 40 bd 95 08 95 bd 44 f6 0a bd 56 ab b8 bb
       -0.047118217 -0.072770275 -0.033926263 -0.005635659
000010 7b 11 8c bc 3b 47 7c bc 3c 8d 20 bd 43 83 54 3d
       -0.01709818 -0.015397842 -0.03919719 0.051882993
000020 3d 7b 5f 3d 35 b2 34 3d bb 62 3b 3d b7 3d ab 3d
       0.05456089 0.044115264 0.045748454 0.083613805
000030 f0 01 95 3d 04 ea 20 3d 1d 52 ef 3b 1b c2 aa bc
       0.0727576 0.039285675 0.00730349 -0.02084451
000040 84 55 2a 3d 55 19 2b 3d e7 a4 3a bc 14 ee b9 bd
       0.04158546 0.041772205 -0.011391855 -0.09078613
000050 e2 c4 a3 bb ea 84 f6 3c ea b6 85 3d 1f 89 dc bc
       -0.0049978355 0.030092675 0.06529029 -0.026920853
000060 87 62 35 3c 9f 39 71 bb e2 c2 e5 3c ec 62 01 bd
       0.011070854 -0.0036808026 0.028047029 -0.03158848
000070 84 07 ca 3c 25 62 e5 bc cb 46 77 bd cc 78 9f 3c
       0.024661787 -0.0280009 -0.060370248 0.01946678
000080 a9 39 9e bc 42 4d 80 3d 2f 2b cb 3c 6a de 28 bd
       -0.019314604 0.06264736 0.024800865 -0.041227736
000090 cb 29 3a bd 33 8b 2c bc 13 61 cc 3c 0f 1b b2 3d
       -0.045450013 -0.010531235 0.024948632 0.08696567
0000a0 3e b9 99 bc bb fb 78 ba b0 9e 2e bd 80 ea 8e bd
       -0.018765088 -0.000949796 -0.042631805 -0.06978321
0000b0 58 57 7e bc 4d 0e 05 bd 73 ee e2 bd c0 51 f9 3c
       -0.015523754 -0.03248434 -0.11080637 0.03043449
0000c0 e8 8e 57 bd 2b 2d d2 bd c1 2d 14 3d 9d d4 5e bd
       -0.05262652 -0.10262521 0.036176447 -0.054401983
0000d0 9c 21 29 bd 97 d8 33 bc 78 bc 59 bc 10 b4 ea 3c
       -0.041291818 -0.010976932 -0.013289563 0.028650314
0000e0 18 18 66 bc a9 bd 3c 3c 87 6d 61 3d c9 e0 43 3d
       -0.01404383 0.011519828 0.055036094 0.047821794
0000f0 ba a8 d4 bb 5d ba 6a 3b a0 ab 4c 3c ef a3 98 3c
       -0.0064898403 0.0035816648 0.01249209 0.018632857
000100 65 8c a8 bc f2 df 66 3c 13 1c 83 3d da 6a 72 3d
       -0.020574758 0.014091479 0.06401839 0.059183933
000110 82 93 c5 bc 8e 91 93 bd c3 8e 32 3d be 9e 25 bd
       -0.024118189 -0.07205497 0.04359318 -0.04043459
000120 13 95 66 3d 47 7f 6d 3b 28 3d ff bb dd 08 72 3d
       0.056294512 0.0036239193 -0.007789273 0.059090484
000130 03 f2 52 3d e6 d3 14 3d 0f 14 d3 3c 9a 1f 8b bd
       0.05150033 0.036334895 0.0257664 -0.06793137
000140 66 71 20 3e 0e 22 03 3d 77 38 9c bc 33 13 02 be
       0.15668258 0.0320149 -0.019069893 -0.12702636
000150 df 10 23 bc f2 f3 f9 3c 78 36 37 3c 25 de 00 3b
       -0.009952753 0.03051183 0.01118242 0.0019663658
000160 fd bc e2 3c 02 e7 55 3d 66 62 1b 3d bf 76 aa bd
       0.027678007 0.05222226 0.037935637 -0.0832343
000170 97 ea 2a 3b 99 4b 9d 3d af 98 11 3e d5 68 90 bd
       0.0026079768 0.07680435 0.142184 -0.07051245
000180 7c 4a 8a bc b5 9d 2f 3d 43 0b 62 3d 28 af db 3c
       -0.01688122 0.04287501 0.05518652 0.02681692
000190 24 be 2e bd 5b a0 61 3d 2d d0 eb ba 17 8f bb 3c
       -0.0426618 0.055084568 -0.0017991118 0.022895379
0001a0 10 e8 6d 3d b8 11 d7 bb 4f 19 59 bd 60 1f de bc
       0.05808264 -0.0065633915 -0.05300265 -0.02711457
0001b0 b8 eb dd bd 03 b0 07 bc 88 11 93 3d bd 6c 59 bd
       -0.108359754 -0.008281711 0.07181078 -0.053082217
0001c0 65 fe 69 3d 62 27 f2 bc 79 b8 17 3d 55 d5 e7 bc
       0.057127375 -0.029559795 0.03704116 -0.028299967
0001d0 9a c3 0b 3d b3 d9 30 39 13 d1 fc bc 3d c1 7b bd
       0.034122087 0.00016865767 -0.030861413 -0.061463583
0001e0 66 39 30 bd e3 85 bc bd af 33 9e bd bb 41 59 b9
       -0.04302349 -0.09205224 -0.077247016 -0.00020719219
0001f0 88 ca fd ba 7c 93 96 3d d7 45 22 3d 87 f8 15 bc
       -0.0019362727 0.07352349 0.039617386 -0.009153492
000200 ea 1d c4 bd 0d 24 a9 3a 45 cb 4a bd c7 0c 87 bd
       -0.09576018 0.0012904421 -0.04951026 -0.06594234
000210 ab b4 7b 3d 65 a2 9b ba d5 25 79 3a eb d9 ce bb
       0.061451595 -0.0011873959 0.00095042336 -0.006312599
000220 ae 3a b9 3c ea 88 d7 bc 15 17 ad 3c 53 86 f8 bd
       0.022610988 -0.026310403 0.02112917 -0.12134995
000230 4d 85 15 3d 79 ec b8 3c d2 c3 ac bc dd a2 60 3b
       0.03650408 0.022573696 -0.021089468 0.0034276762
000240 c2 16 70 bd 75 a7 a8 bb 4b 42 e5 bc ee f5 8d bd
       -0.058615454 -0.0051469156 -0.027985713 -0.06931673
000250 d2 4f bf bb cf 0e b1 bd 5f 03 49 3c a7 30 00 3d
       -0.0058383727 -0.08645403 0.01226887 0.0312964
000260 ef 36 7d bd 47 f6 00 3d 4d 0c 6b bd 93 da ba 3d
       -0.061819967 0.03148487 -0.057384778 0.09123721
000270 5f bc 2c 3d 18 1d 97 bd b4 1d 4b bc af e7 d7 3d
       0.042171832 -0.07378596 -0.0123972185 0.10542237
000280 88 91 8f 3c 3b 7b 01 3c 2c 01 3a bb e2 a3 2e 3d
       0.01752545 0.007902916 -0.0028382046 0.04263676
000290 b1 b8 b7 bc 5f 50 06 bc c8 22 8e bd 55 2e 1e 3c
       -0.022426935 -0.008197873 -0.06940228 0.009654601
0002a0 ea 87 2a bd e3 7f 8c bd 25 61 e3 bc f2 c5 5f bc
       -0.041633524 -0.0686033 -0.027756283 -0.013658034
0002b0 10 69 85 3d fe 8c 09 bc 4a 0a d9 3c d7 86 ae 3b
       0.0651418 -0.008395432 0.026494164 0.0053261328
0002c0 cb 2a 87 3c 6f 22 a9 3d 53 94 ea bc a6 84 00 bb
       0.016499897 0.08258521 -0.02863518 -0.0019610315
0002d0 2f f2 5d 3c fb 94 09 3d aa 02 33 3e dd 03 ea 3c
       0.013546511 0.033589344 0.17481485 0.028566295
0002e0 ef 21 8b bd cf 53 0c bd 68 0d 7e bd 07 e4 93 3d
       -0.06793582 -0.034259614 -0.062024504 0.07221227
0002f0 ef 21 c6 bc 23 64 a1 3c 8d 15 74 bc 37 6c a3 3c
       -0.024186103 0.01970107 -0.014897716 0.019949062
000300 21 df 48 3d e3 cd c5 bd 52 92 0e 3d e5 c1 6c 3d
       0.049040917 -0.096584104 0.03480751 0.0578021
000310 03 d9 8c 3d 69 23 a1 bc fd b1 6c bc a7 1a 8c bd
       0.06877329 -0.019670205 -0.014446733 -0.06841021
000320 77 5d 81 bd 04 9b 9a bd 37 a7 d3 3d 47 2f ab 3c
       -0.06316655 -0.07549098 0.10334628 0.020896567
000330 0b 2d 64 3d 66 79 84 bd da 13 bc 3d ae 44 a9 bd
       0.05570702 -0.064684674 0.09183474 -0.08265053
000340 cd 03 23 bd 62 ad 53 bc 31 cf 8d bd b6 78 9d bd
       -0.039798547 -0.012919756 -0.06924284 -0.076890394
000350 0a dc e8 3c 5b 37 99 bd 36 81 3c 3c 38 43 0e 3d
       0.028425235 -0.07481261 0.011505416 0.034732074
000360 bb cf 03 3d a4 56 31 bd 5f c4 7a 3c e9 f9 2e bd
       0.03218053 -0.043295518 0.015305608 -0.0427188
000370 58 83 fc 3b cb 95 e7 3b 1d af 14 3d 91 90 8c 3d
       0.007706087 0.0070674173 0.036299814 0.06863511
000380 e6 ed 1a bd 58 55 df 3d 2d 11 6d 3d 1e 66 96 3c
       -0.037824534 0.1090495 0.05787771 0.01835924
000390 c9 24 25 3d 97 ce b0 3c 45 d6 ed 3c ed 51 3f bd
       0.040318284 0.021582885 0.029032836 -0.04670899
0003a0 9a 7b f3 bd cf 53 f1 bc 7b 7d cf bc 76 50 c4 bc
       -0.118888095 -0.029458908 -0.025328388 -0.023964148
0003b0 c5 a0 e8 bd 6e 52 16 3d 37 22 03 bd 8a ff fe 3c
       -0.11358789 0.036699705 -0.03201505 0.03112771
0003c0 03 d6 10 3d e7 7b 2a 3d 8b 90 ac bc 86 0a 93 3d
       0.035360347 0.04162207 -0.021065017 0.071797416
0003d0 df c0 00 3d 66 90 1f 3d 39 c4 0b 3d ad 44 e0 bc
       0.031433936 0.03895607 0.03412268 -0.027376497
0003e0 ad 13 e5 3c 54 fe 9d 3b 27 5c 88 3d 4f 9a 03 bd
       0.027963484 0.004821578 0.06658202 -0.032129582
0003f0 a2 39 06 be 10 c6 81 3c 53 7a 8a 3b 87 de 71 bd
       -0.13107923 0.015841514 0.004226008 -0.05905011
